nets/parameters/lp+lssim_se_sf_net_times30.pkl (torch_old, 311937 bytes, 51 tensors)

features.0.weight f4 [16, 1, 3, 3]
0	0x3e0e6218	0.13904607
1	0xbe061e04	-0.13097388
2	0xbd58c921	-0.052926186
3	0x3e175893	0.14779882
4	0xbe9fbc91	-0.31198552
5	0x3e4aeb8a	0.19816414
6	0xbd831bb9	-0.06401772
7	0x3e2acd5e	0.16679904
8	0x3d4bc2af	0.04974621
9	0xbd0ed99f	-0.03487551
10	0x3db13e6f	0.086544864
11	0x3b1165fd	0.0022186034
12	0x3dfa6335	0.122259535
13	0xbe14702a	-0.14495912
14	0xbd28d564	-0.04121913
15	0xbcf0dbb8	-0.029401645
16	0x3d00826a	0.031374373
17	0xbc6308b4	-0.013857055
18	0x3e887b3f	0.2665653
19	0x3db5899a	0.08864136
20	0xbe06db55	-0.13169606
21	0xbe5af1f6	-0.21381363
22	0xbd884d6f	-0.06655394
23	0xbe119312	-0.14216259
24	0xbdcdf338	-0.10056156
25	0xbbc8dbb1	-0.006129705
26	0x3e30b2cf	0.1725571
27	0x3e1e0681	0.15432169
28	0xbeb0b130	-0.34510183
29	0x3e4a784e	0.19772455
30	0x3d5fed26	0.05466952
31	0x3e8e0708	0.2773974
32	0x3e542965	0.20718916
33	0xbea34301	-0.31887057
34	0xbeb13239	-0.3460863
35	0xbe1f5c32	-0.15562513
36	0x3e9fb7d9	0.31194952
37	0xbcaf8eac	-0.021430336
38	0x3e08b175	0.13348944
39	0xbe0e79f2	-0.13913706
40	0x3eb2a3f2	0.34890705
41	0xbdc852c8	-0.09781414
42	0x3e7b693d	0.24551864
43	0x3d123584	0.035695568
44	0xbdcb2270	-0.09918678
45	0x3df728f3	0.12068357
46	0xbe5cb9f6	-0.21555313
47	0x3d4cb2f2	0.049975343
48	0xbe007b85	-0.12547119
49	0xbda51ab0	-0.08061731
50	0xbeaf4ae5	-0.34236827
51	0xbe358c01	-0.17729189
52	0x3dfa094c	0.122088045
53	0xbdfb05dc	-0.12256977
54	0x3ecfbb61	0.40572646
55	0x3e9e24c6	0.3088743
56	0x3d067c00	0.0328331
57	0xbe38d73f	-0.1805086
58	0x3e7f3133	0.24921112
59	0x3e1a69bb	0.15079395
60	0xbe1311cd	-0.14362259
61	0x3e5ffbc9	0.21873392
62	0x3e61e4b1	0.22059895
63	0x3e8310f8	0.25598884
64	0xbe62e3f0	-0.22157264
65	0xbdee9536	-0.116495535
66	0xbc887203	-0.016655928
67	0x3cbabb35	0.022794345
68	0xbe98a0af	-0.29810092
69	0xbe6224f1	-0.22084405
70	0x3e039b15	0.12852128
71	0xbe10f8cc	-0.14157408
72	0x3e558c8c	0.20854396
73	0x3d6f4dcb	0.0584238
74	0x3e07e438	0.13270652
75	0x3d3ee329	0.046603356
76	0x3e48aae4	0.1959644
77	0x3e662c43	0.22477822
78	0xbe895e70	-0.26829863
79	0x3e37257e	0.17885396
80	0xbe3f0271	-0.18653275
81	0xbe8a889c	-0.2705735
82	0xbcda19da	-0.026623655
83	0xbdc5a1c8	-0.09649998
84	0x3e09f549	0.13472475
85	0xbe831c7c	-0.2560767
86	0xbea7b3fb	-0.32754502
87	0x3e5cbc3b	0.21556179
88	0xbd9ef62b	-0.077617966
89	0x3e1e0635	0.15432055
90	0x3d998237	0.0749554
91	0xbe7a7144	-0.2445727
92	0x3d8082bc	0.062749356
93	0x3d39570d	0.045249034
94	0xbe63b647	-0.22237502
95	0xbe17e166	-0.14832076
96	0x3d9b0028	0.07568389
97	0x3d2dfd05	0.042477626
98	0xbe0bde7b	-0.13659088
99	0xbd8cccb0	-0.068749785
100	0x3eb32c7d	0.3499488
101	0xbb970da1	-0.004609779
102	0x3e5db407	0.21650706
103	0x3e39f752	0.18160751
104	0xbe30666c	-0.17226571
105	0xbe728fcd	-0.23687668
106	0x3eaf7b33	0.3427368
107	0x3d34ef4a	0.044173516
108	0x3e5a6421	0.21327259
109	0x3e1e84fa	0.15480414
110	0x3e3d8bd7	0.18510376
111	0x3e80ab40	0.25130653
112	0x3eb8a369	0.36062172
113	0xbe4ea6da	-0.20180836
114	0x3dab1b2e	0.083547935
115	0x3e7afa38	0.24509513
116	0x3e6edf8b	0.23327462
117	0x3e168fce	0.14703295
118	0xbe83f4ed	-0.257728
119	0xbe8b6456	-0.27224988
120	0xbe7d44d4	-0.24733287
121	0x3be0efb9	0.0068645147
122	0x3e8d14d3	0.2755495
123	0xbe69249a	-0.22767869
124	0x3deb2c58	0.11483067
125	0xbe6d1edd	-0.23156305
126	0xbe8a0ed8	-0.2696445
127	0xbd1414bd	-0.03615259
128	0x3e5b9e6c	0.21447152
129	0x3eb4ef1d	0.3533868
130	0xbe31ad6f	-0.17351316
131	0x3d8daed5	0.06918112
132	0x3e98d26f	0.29848048
133	0x3e716b99	0.23576201
134	0x3e50abda	0.20378056
135	0x3e4f1cd6	0.20225844
136	0x3e2f1cb9	0.171008
137	0x3d726585	0.059178848
138	0xbe84c531	-0.25931695
139	0xbea421ea	-0.32057124
140	0xbe261239	-0.16217889
141	0xbd86bd89	-0.0657912
142	0xbe71fba9	-0.23631157
143	0x3dd17baa	0.10228665

features.0.bias f4 [16]
0	0x3ee0cf53	0.43908176
1	0xbd1220dd	-0.035675872
2	0x3f1f6a00	0.6227112
3	0x3e726634	0.236718
4	0x3e620e1c	0.22075695
5	0x3e5524b5	0.20814784
6	0xbd9632ea	-0.0733393
7	0x3e9d48eb	0.30719694
8	0x3d142dca	0.03617648
9	0x3d09f3c1	0.033679727
10	0xbeb4d842	-0.35321242
11	0xbe3f9097	-0.187075
12	0xbe2b349c	-0.16719288
13	0xbe264246	-0.16236219
14	0x3e6ee97e	0.23331258
15	0xbe04ac47	-0.12956344

features.2.weight f4 [16]
0	0x3f7a144a	0.9768721
1	0x3f512f93	0.8171322
2	0x3f7be519	0.9839645
3	0x3f7b596f	0.9818334
4	0x3f83b066	1.0288208
5	0x3f861d06	1.0477607
6	0x3f815090	1.0102711
7	0x3f83001d	1.023441
8	0x3f824be1	1.0179406
9	0x3f82a40a	1.0206311
10	0x3f80b727	1.0055894
11	0x3f7d072b	0.9883906
12	0x3f815fd1	1.0107366
13	0x3f7c9e28	0.9867883
14	0x3f84ef79	1.0385581
15	0x3f7918e3	0.973036

features.2.bias f4 [16]
0	0x3c769583	0.015050295
1	0x3dcb26a2	0.09919478
2	0x3d359495	0.044331152
3	0x3dbaf64f	0.09129011
4	0xbcd1d64b	-0.025614878
5	0x3c583daf	0.0131983
6	0x3cd851ef	0.026406256
7	0xbdaa6204	-0.08319476
8	0xbdb5fce8	-0.08886129
9	0x3cc18b28	0.023625925
10	0xbd8d5476	-0.06900875
11	0x3d75982f	0.059959587
12	0x3d7aa199	0.061189268
13	0xbdcc312e	-0.09970318
14	0x3d981390	0.07425606
15	0xbd54fb18	-0.051997274

features.2.running_mean f4 [16]
0	0x3ee19f2e	0.44066757
1	0x3bad8ec6	0.005296561
2	0x3f1f4bc6	0.62224996
3	0x3e92459a	0.28568727
4	0x3ed46f95	0.4149138
5	0x3eda5a42	0.42646986
6	0x3ef5b1d5	0.47987238
7	0x3edcf2ce	0.43153995
8	0x3e898938	0.26862502
9	0x3e7fb722	0.24972203
10	0x3d59701a	0.053085424
11	0x3e44885e	0.19192645
12	0x3f09fee6	0.5390457
13	0x3e4e11d6	0.20123991
14	0x3efc2c89	0.49252728
15	0x3e2259da	0.15854588

features.2.running_var f4 [16]
0	0x3ce0dce9	0.027449088
1	0x39f9f77a	0.00047677365
2	0x3ceff1b5	0.02929006
3	0x3d914511	0.070932515
4	0x3e773f4f	0.24145244
5	0x3e69d9b5	0.22836955
6	0x3ef84088	0.48486733
7	0x3e3e1570	0.18562865
8	0x3e079b71	0.1324289
9	0x3dcb58b4	0.09929028
10	0x3c476350	0.012169674
11	0x3dcbe27e	0.09955309
12	0x3f26e6d8	0.6519599
13	0x3db5e9ef	0.0888251
14	0x3eb8056c	0.35941637
15	0x3d640b86	0.055675052

se_f.fc.0.weight f4 [2, 16]
0	0xbe1b129e	-0.1514382
1	0x3d85e139	0.065370984
2	0x3d18eb5d	0.037333835
3	0x3debc14e	0.11511479
4	0xbddd37c6	-0.108016536
5	0x3c3eb58d	0.011639965
6	0xbd9603c4	-0.07324937
7	0xbdd1db64	-0.102469236
8	0xbe423a12	-0.18967465
9	0xbe244c47	-0.16044722
10	0xbdff5159	-0.12466688
11	0x3df09ed9	0.11749048
12	0x3d836be0	0.0641706
13	0x3c2d3d5e	0.010573713
14	0x3e8c1a7d	0.2736396
15	0x3e433288	0.19062245
16	0x3e4043d3	0.18775873
17	0x3d2a0a43	0.041513693
18	0xbe3a484b	-0.1819164
19	0x3e5070ad	0.20355482
20	0xbb3f4530	-0.0029185526
21	0x3bca4f14	0.0061739776
22	0xbe09d4ba	-0.13460055
23	0xbccb2d9c	-0.024802022
24	0xbda16919	-0.07881374
25	0x3e8b7285	0.2723581
26	0xbe0320c3	-0.12805466
27	0xbdd43a30	-0.10362661
28	0x3d938bc3	0.07204392
29	0xbd5c9372	-0.053851552
30	0x3e196541	0.14980032
31	0xbcb84fa3	-0.022498911

se_f.fc.2.weight f4 [16, 2]
0	0xbeaeac24	-0.34115708
1	0xbd06a8d8	-0.032875866
2	0x3ea99715	0.3312308
3	0xbf35f2d2	-0.7107364
4	0x3ea628b1	0.3245292
5	0x3ead88a9	0.33893326
6	0x3f316000	0.6928711
7	0xbeff3475	-0.4984471
8	0x3e2e6e3d	0.1703424
9	0xbf08258f	-0.5318231
10	0x3f077b90	0.52922916
11	0xbeafe960	-0.34357738
12	0x3ecf96af	0.4054465
13	0xbc4f5012	-0.012653368
14	0xbd83a50d	-0.06427965
15	0xbd7ad65d	-0.06123959
16	0x3def5d94	0.116877705
17	0x3e89aeb7	0.2689111
18	0x3e0ba624	0.13637596
19	0x3e725bb0	0.23667789
20	0xbf2cf703	-0.6756441
21	0x3ee6c5b9	0.45072725
22	0x3f06969e	0.52573574
23	0x3efc6e0d	0.49302712
24	0x3eee1a39	0.4650438
25	0xbf0ea0b5	-0.5571397
26	0xbe8af961	-0.27143386
27	0x3f0f6ded	0.5602711
28	0xbf089c23	-0.53363246
29	0x3f137ed4	0.576154
30	0xbf1cf541	-0.6131173
31	0xbf0b9d2a	-0.5453669

conv_encode_1.0.weight f4 [16, 16, 3, 3]
0	0x3cb30999	0.021855162
1	0xbd710916	-0.058846556
2	0xbd0da1be	-0.034578077
3	0x3d8adb62	0.06780125
4	0x3da243c2	0.0792308
5	0x3d81abfe	0.06331633
6	0xbcf862a6	-0.030320477
7	0xbd7a56a9	-0.0611178
8	0x3d7b2e20	0.061323285
9	0xbc8c6840	-0.017139554
10	0x3c9883ba	0.0186175
11	0xbaf47c3e	-0.001865275
12	0xbb9c3e55	-0.0047681727
13	0x3d516508	0.05112174
14	0x3cf02aca	0.029317278
15	0xbc0f0007	-0.008728034
16	0xbd0ddeb8	-0.03463623
17	0x3c1cce06	0.009570604
18	0x3c9bd5c1	0.019022824
19	0x3c149d3a	0.009070689
20	0xbcc70a3b	-0.02429687
21	0xba02345f	-0.00049669103
22	0xbdf444f5	-0.11927215
23	0xbdce5c73	-0.10076227
24	0xbd107dea	-0.03527633
25	0x3d2f1d34	0.04275246
26	0x3da8b4bb	0.082375966
27	0xbc4c884a	-0.012483666
28	0x3ad8fa5f	0.0016554109
29	0x3d0608f5	0.032723386
30	0x3d03e289	0.032198463
31	0xba940df7	-0.0011295666
32	0x3d828be2	0.06374337
33	0x3d9637fb	0.07334896
34	0x3c7dd54b	0.015492748
35	0xbc988c23	-0.01862151
36	0x3d9b41da	0.075809196
37	0x3db1244b	0.086495005
38	0xbcee4755	-0.029086748
39	0x3db05d42	0.086115375
40	0x3d0f8a97	0.03504428
41	0xbd50d788	-0.050986797
42	0x3d340e55	0.04395898
43	0xbd3029cf	-0.04300862
44	0x3dcf4ac6	0.10121684
45	0xbdaf24b5	-0.08551923
46	0x3b3aaffc	0.0028486243
47	0x3c527adf	0.012846678
48	0xbd1a6810	-0.037696898
49	0x3d05a201	0.032625202
50	0xbd5c3bd7	-0.053768005
51	0xbda71f55	-0.08160273
52	0xbdd0b13c	-0.10190055
53	0xbcc8c7ac	-0.024509273
54	0xbd21b7fb	-0.039482098
55	0x3b849a35	0.004046703
56	0xbc6ec62f	-0.014573618
57	0x3cde7b6f	0.027158467
58	0x3d8a6fe0	0.0675962
59	0x3c9260e6	0.01786847
60	0xbccfccc0	-0.025366187
61	0xbd1759e5	-0.036950964
62	0xbd8c98da	-0.068650916
63	0x3d5bcb3d	0.05366062
64	0xbc986e10	-0.01860717
65	0x3cbb69c5	0.022877583
66	0xbca0ab93	-0.019613063
67	0xbd5f0d4f	-0.05445605
68	0x3d3bfced	0.045895506
69	0x3cde1742	0.0271107
70	0x3bcad033	0.00618937
71	0xbd4a7319	-0.049426172
72	0xbce653c2	-0.02811611
73	0x3bfb8093	0.0076752394
74	0xbd1975eb	-0.03746597
75	0xbd19c3aa	-0.037540115
76	0xbc25b5a7	-0.01011411
77	0xbca9dffc	-0.020736687
78	0x3d1a0706	0.037604354
79	0xba7a0eaf	-0.0009538931
80	0x3bba147e	0.0056787124
81	0xbcd259b9	-0.025677549
82	0xbd92a281	-0.071599014
83	0x3d83f834	0.06443825
84	0x3c3b11df	0.011417835
85	0x3d911931	0.07084883
86	0x3a3adc60	0.00071281753
87	0xbd058e4e	-0.032606415
88	0xbd9ff760	-0.07810855
89	0xbc0cdf81	-0.008598209
90	0x3d336ef8	0.043807
91	0xbd81221a	-0.063053325
92	0xbc7b075c	-0.015321579
93	0x3d040cd1	0.032238785
94	0x3d8dab51	0.06917442
95	0x3d321cac	0.043484375
96	0xbd2b1723	-0.04177011
97	0x3b857105	0.004072311
98	0x3b132935	0.0022454981
99	0xbcc75518	-0.024332568
100	0x3d0cfc39	0.034420226
101	0xbcd0409a	-0.02542143
102	0xbd4e9fb4	-0.050445274
103	0x3c7a3fe0	0.015274018
104	0xbd569f09	-0.05239776
105	0xbc832c17	-0.016012235
106	0x3d46580e	0.04842382
107	0x3d117370	0.03551048
108	0x3d8963ad	0.06708465
109	0xbd7027ed	-0.058631826
110	0xbb8d7a57	-0.0043175626
111	0xbd081272	-0.033220716
112	0xbd4b2427	-0.049595024
113	0xbd4fce96	-0.050734125
114	0x3c4b2d7c	0.012400981
115	0x3bc9a0e5	0.0061532133
116	0xbd39d507	-0.045369174
117	0xbd69d725	-0.057089943
118	0xbd9511ac	-0.07278761
119	0x3da1f7f9	0.07908625
120	0xbccf1b9e	-0.025281724
121	0xbceec6a8	-0.029147461
122	0xbd02c35d	-0.031924594
123	0xbd5194a6	-0.051167153
124	0xbda8ae04	-0.08236316
125	0xbd5f35a7	-0.054494526
126	0x3d81fd87	0.06347185
127	0x3cfdb0aa	0.030968029
128	0xbccdbef3	-0.025115466
129	0xbcd3916a	-0.025826175
130	0x3d87c884	0.06630042
131	0x3d9e45d8	0.077281654
132	0x3dad2229	0.08453781
133	0x3cf5fe32	0.030028436
134	0x3d1954ac	0.037434265
135	0xbbfd108c	-0.00772292
136	0xbd0bdba7	-0.034145024
137	0xbd74dfbc	-0.059783682
138	0x3d41c29b	0.04730473
139	0xbba04d6a	-0.004892041
140	0x3d0703c5	0.03296258
141	0x3b2d7681	0.002646834
142	0xbd8257c5	-0.06364397
143	0xbcb8c051	-0.022552641
144	0xbcd79ba8	-0.02631934
145	0xbcf9f86c	-0.030513965
146	0xbdb10d68	-0.08645135
147	0xbb3abc7f	-0.00284937
148	0xbca61546	-0.020273816
149	0xbd04a3d9	-0.03238282
150	0xba71ef45	-0.00092290743
151	0xbcc5dec4	-0.024154074
152	0xbd2dd76b	-0.042441767
153	0x3ce139c7	0.02749337
154	0xb948a51f	-0.00019134999
155	0xbcd8d700	-0.026469707
156	0xbcbe3eef	-0.023223368
157	0xbda558a1	-0.08073545
158	0x3b954b0f	0.004556067
159	0xbc85baa8	-0.016324356
160	0xbda15c67	-0.078789525
161	0xbc83fe6e	-0.016112532
162	0x3bccbab3	0.006247842
163	0xba446723	-0.0007492175
164	0xbced2bcd	-0.02895155
165	0xbc96ce43	-0.0184089
166	0x3cf6634f	0.03007665
167	0x3d1d78aa	0.038445152
168	0x3c4e3bb6	0.012587478
169	0xbd49d7e1	-0.049278144
170	0x3d91b5c6	0.07114749
171	0xbc5becc0	-0.013423145
172	0x3d616f71	0.05503792
173	0x3b646c61	0.0034854638
174	0x3d48da80	0.049036503
175	0x3d772fd8	0.06034836
176	0xbc9c3839	-0.019069778
177	0x3cdf13bb	0.027231088
178	0xbc8804e0	-0.016603887
179	0x3c24c2f9	0.010056251
180	0xbc4fdbba	-0.012686664
181	0xbd94453b	-0.07239767
182	0xbd4afc0a	-0.04955677
183	0xbd482970	-0.048867643
184	0x3d5d9428	0.05409637
185	0xbd02b411	-0.031910006
186	0xbca8204b	-0.020523211
187	0x3d090550	0.033452332
188	0x3cdf81d0	0.02728358
189	0xbd21916e	-0.039445333
190	0x3d237407	0.039905574
191	0x3d04b5af	0.03239983
192	0xbd86a605	-0.065746345
193	0x3daddd62	0.08489491
194	0xbd43bffd	-0.047790516
195	0x3aea5cf6	0.0017880488
196	0xbd32a457	-0.043613758
197	0x3d95a535	0.07306901
198	0x3c8cd5e0	0.017191827
199	0x3d8b91de	0.06814931
200	0x3c4f6dbc	0.01266044
201	0x3d258aa1	0.04041541
202	0xbd0c69bc	-0.034280524
203	0xbd8a8b81	-0.067648895
204	0xba6e946e	-0.0009101097
205	0xbca41dc0	-0.020033717
206	0xbc8c0e70	-0.017096728
207	0xbcb129a6	-0.021626305
208	0x3b85dbcd	0.00408504
209	0x3c036db3	0.00802176
210	0x3d47f87f	0.04882097
211	0xbd541ee5	-0.051787276
212	0x3cf383d8	0.029725954
213	0x3d24f1fa	0.04026983
214	0x3da4d060	0.08047557
215	0x3d3802a1	0.044924382
216	0xbd806899	-0.062699504
217	0x3d933406	0.07187657
218	0xbdab8535	-0.083750166
219	0x3d274441	0.040836576
220	0xbb82df38	-0.003993895
221	0x3ce959ee	0.028485265
222	0xbd78b42c	-0.0607187
223	0x3d057af6	0.032587968
224	0xbd1b449f	-0.03790724
225	0xbd4eccf1	-0.050488416
226	0x3cbcc216	0.023041766
227	0x3d0b7e00	0.03405571
228	0x3d899b48	0.06719071
229	0xbcd025d5	-0.025408665
230	0x3db2a949	0.08723695
231	0x3d8722ca	0.06598432
232	0xbd201982	-0.039086826
233	0xbd842278	-0.06451887
234	0x3da65727	0.08122092
235	0xbc02b0b4	-0.0079767
236	0x3d9b05e9	0.07569487
237	0xbca8ca2e	-0.02060422
238	0x3dc43da6	0.09582071
239	0x3d920b41	0.07131053
240	0x3d221f30	0.039580524
241	0x3d9c8c5a	0.076439574
242	0xbc2f219f	-0.010689168
243	0xbcff68d4	-0.031177916
244	0xbc34131d	-0.010990885
245	0xbd923ed0	-0.07140887
246	0xbd42f168	-0.047593504
247	0xbd6d671a	-0.057959653
248	0x3d6455e9	0.055745993
249	0x3d2f37c8	0.042777807
250	0x3d42909c	0.04750119
251	0x3d22ae95	0.039717276
252	0xbd9ebba0	-0.077506304
253	0x3cfda1a0	0.030960858
254	0x3cf75c3b	0.030195346
255	0xbd86516c	-0.06558499

conv_encode_1.0.bias f4 [16]
0	0xbd3da369	-0.04629842
1	0x3b7f1527	0.003892252
2	0x3c80f5a2	0.015742127
3	0xbe129d34	-0.1431778
4	0xba0590d7	-0.000509513
5	0x3c4068e9	0.0117437625
6	0x3dec06ff	0.11524772
7	0xbd7fbeed	-0.06243794
8	0xbc4818ef	-0.012212976
9	0xbbc8a5c9	-0.0061232788
10	0xbbb6dd14	-0.005580554
11	0xbd29a01f	-0.04141247
12	0x3d434cba	0.047680594
13	0xbcd95f44	-0.026534684
14	0x3cfaa6c4	0.030597098
15	0xbc1a746a	-0.009427169

conv_encode_1.2.weight f4 [16]
0	0x3f76ee80	0.9645767
1	0x3f7d7d61	0.9901944
2	0x3f7861d5	0.9702428
3	0x3f7fd45f	0.9993343
4	0x3f69ebc8	0.913754
5	0x3f7c56cc	0.9856994
6	0x3f786383	0.9702684
7	0x3f613333	0.8796875
8	0x3f6d4be4	0.92693925
9	0x3f7d3898	0.9891448
10	0x3f7f85cf	0.9981355
11	0x3f808c66	1.0042846
12	0x3f7d6e25	0.9899619
13	0x3f7dc98a	0.9913565
14	0x3f7c6b81	0.9860154
15	0x3f7e89f6	0.9942926

conv_encode_1.2.bias f4 [16]
0	0x3c349e78	0.01102411
1	0xbd71f88e	-0.05907493
2	0x3d440430	0.047855556
3	0xbdc05b5a	-0.09392424
4	0x3da59613	0.08085265
5	0x3db9e61b	0.09077092
6	0x3dd406c7	0.10352855
7	0x3e0938e7	0.13400613
8	0xbcab84c4	-0.020937331
9	0xbcd2f199	-0.025749968
10	0xbd2edd5d	-0.042691577
11	0x3d4748ee	0.048653536
12	0xbab3d151	-0.0013718997
13	0xbc4e47ec	-0.01259039
14	0x3bbbf568	0.005736042
15	0xbd82a9d9	-0.06380052

conv_encode_1.2.running_mean f4 [16]
0	0x3e5f3310	0.21796823
1	0x3e958294	0.29201186
2	0x3e65ba24	0.22434288
3	0x3b53557c	0.0032246998
4	0x3dc8635e	0.09784578
5	0x3e9c337d	0.30508032
6	0x3e6805a0	0.22658396
7	0x3d44a505	0.048008937
8	0x3e26df9a	0.16296235
9	0x3ec69217	0.38783333
10	0x3eb925ff	0.361618
11	0x3ed086f0	0.4072795
12	0x3ea7ad56	0.32749432
13	0x3ebe370b	0.3715137
14	0x3e8594d1	0.260901
15	0x3e9d401a	0.30712968

conv_encode_1.2.running_var f4 [16]
0	0x3d75f737	0.060050216
1	0x3e62f019	0.22161902
2	0x3e3422b6	0.17591366
3	0x39b1627d	0.0003383345
4	0x3c9cefd1	0.019157322
5	0x3ddadd6a	0.10686763
6	0x3d9ada03	0.07561114
7	0x3c742321	0.0149009535
8	0x3d7d5136	0.061845027
9	0x3ea9b84f	0.3314843
10	0x3e8c9aaa	0.2746175
11	0x3e12e6ef	0.14345907
12	0x3e188cc3	0.14897446
13	0x3e93fe11	0.28904775
14	0x3daec8b9	0.085343786
15	0x3dbaf69b	0.091290675

se_1.fc.0.weight f4 [2, 16]
0	0x3e5f2caf	0.21794389
1	0xbdd9c794	-0.1063377
2	0xbd703b77	-0.05865046
3	0x3e6dce31	0.23223187
4	0x3cad5476	0.021158438
5	0xbe51dee2	-0.2049518
6	0x3e1671ef	0.146919
7	0xbe19e936	-0.15030369
8	0x3bbc34f7	0.0057436186
9	0x3de336f3	0.11094465
10	0x3cd0ffb6	0.025512557
11	0x3e5854b8	0.21126068
12	0xbdd1a4e6	-0.1023653
13	0xbe294240	-0.16529179
14	0x3bd8027e	0.006592094
15	0x3d2b48df	0.041817542
16	0x3e10e464	0.14149624
17	0xbd9881ee	-0.07446657
18	0xbccb8e0c	-0.024848007
19	0xbdf4b0b9	-0.1194777
20	0xbe121584	-0.1426602
21	0xbdf9337c	-0.12168023
22	0xbe3ab6fc	-0.18233865
23	0xbdcf7721	-0.10130144
24	0x3e0b639d	0.13612218
25	0xbd58e593	-0.052953314
26	0x3e0aa925	0.13541086
27	0x3e7fc579	0.24977674
28	0xbe68d545	-0.22737606
29	0x3cd7c96e	0.026341166
30	0x3dc9300c	0.09823617
31	0xbe5b3afd	-0.21409221

se_1.fc.2.weight f4 [16, 2]
0	0xbe53f0f7	-0.2069739
1	0x3efa684c	0.48907697
2	0xbf0db106	-0.5534824
3	0x3f0a3c0f	0.5399789
4	0x3cf3e433	0.0297719
5	0x3e5c701c	0.21527141
6	0x3f0eb14c	0.55739284
7	0xbf354b46	-0.70817983
8	0x3f1265b0	0.5718641
9	0xbf17a03a	-0.5922886
10	0x3ea98efb	0.33116898
11	0xbb1e57b9	-0.0024161173
12	0x3f02ae80	0.51047516
13	0xb9e79f6e	-0.00044178538
14	0xbf3d4a37	-0.7394137
15	0xbc82c4f9	-0.015963065
16	0x3edf2d81	0.43589404
17	0xbe5d70f5	-0.21625121
18	0xbf27cd83	-0.6554796
19	0x3c500c67	0.012698269
20	0x3dada0a5	0.08477906
21	0x3e903c01	0.2817078
22	0x3e80949d	0.25113383
23	0xbd7ad28d	-0.061235953
24	0x3d60440c	0.054752395
25	0x3d5bc373	0.05365319
26	0x3e8ad6f3	0.27117118
27	0x3e850c7f	0.25986096
28	0x3e97a751	0.2961984
29	0xbc0c1d6a	-0.008551935
30	0xbd8a75eb	-0.06760772
31	0x3ee4ee32	0.4471298

conv_encode_2.0.weight f4 [16, 32, 3, 3]
0	0x3c351904	0.0110533275
1	0xbd3ce90d	-0.046120692
2	0x3ca0b8d0	0.019619375
3	0x3d53685a	0.05161319
4	0xbc65dee3	-0.014030191
5	0x3d061dfb	0.032743435
6	0xbc80eb1f	-0.015737114
7	0xbbb9fca5	-0.0056758695
8	0x3d026fd6	0.031844936
9	0x3c266bb5	0.010157515
10	0x3bdf7c8f	0.0068202685
11	0x3a2662c8	0.0006347117
12	0xbd04e0bd	-0.03244089
13	0x3c0dd767	0.008657313
14	0x3cbbdeec	0.022933446
15	0xbcba09fd	-0.02270984
16	0xbcb688ac	-0.022281967
17	0xbc70f317	-0.014706395
18	0x3cfa178d	0.030528808
19	0xbbce7668	-0.006300736
20	0x3cc5cafb	0.02414464
21	0xbd4fc27d	-0.050722588
22	0x3d6bdbe5	0.057582755
23	0x3d77c739	0.060492728
24	0xbc5441c5	-0.012955134
25	0x3c9e5cd8	0.01933138
26	0xbd3735f6	-0.044729196
27	0xbd673c4c	-0.056453988
28	0xbd499027	-0.04920974
29	0x3c96b2ee	0.018395867
30	0x3d334236	0.043764316
31	0x3ce7fe29	0.028319435
32	0x3caf581c	0.021404319
33	0xbc2c2efb	-0.010509248
34	0xbca671c4	-0.02031792
35	0xbcdb4e07	-0.026770605
36	0x3d1444c9	0.03619841
37	0xbd5714f7	-0.052510228
38	0x3d2b3d1a	0.041806318
39	0x3d316a3e	0.04331421
40	0xbc64a093	-0.0139542995
41	0x3b21ca74	0.0024687322
42	0xbc9a5a57	-0.018841906
43	0xbd3b098d	-0.045663405
44	0x3c1d9d1f	0.00961998
45	0xbd51b618	-0.05119905
46	0x39824289	0.00024845105
47	0xbcac55c8	-0.021036997
48	0xbd536253	-0.05160744
49	0xbd700a29	-0.05860344
50	0x3d506b36	0.050883494
51	0x3d4d6a5e	0.050150268
52	0x3d777754	0.060416535
53	0x3caf69ef	0.021412818
54	0x3cf93dc0	0.030424953
55	0x3c9ecb1f	0.019383965
56	0x3d02d877	0.03194472
57	0x3cb9a1fc	0.022660248
58	0x3bf4e89e	0.007474019
59	0x3d09f9a2	0.033685334
60	0x3d372417	0.044712152
61	0xbcd8810b	-0.02642872
62	0x3d0af0c3	0.033921015
63	0x3d50020c	0.050783202
64	0xbcb514b6	-0.022104602
65	0xbd635fcc	-0.05551128
66	0xbca0be69	-0.019622045
67	0xbd2da45a	-0.042393066
68	0x3d76844c	0.060184762
69	0xbc0db19d	-0.008648303
70	0xbcc4730b	-0.023980638
71	0x3d12b9e3	0.035821807
72	0x3bf9c039	0.0076217917
73	0xbb5da013	-0.0033817335
74	0x3ce0fe73	0.02746508
75	0xbd827889	-0.063706465
76	0x3d280dbe	0.04102873
77	0xbca97841	-0.020687224
78	0x3c9876d5	0.018611351
79	0xbca4fd48	-0.020140305
80	0x3d299929	0.04140583
81	0xbbbeed34	-0.0058266167
82	0x3c6ab584	0.014325503
83	0xbd01f246	-0.03172519
84	0x3d086c93	0.03330667
85	0xbd82d5e5	-0.063884534
86	0x3cfa6107	0.030563844
87	0x3d7d87ba	0.061897017
88	0x3d76a46c	0.0602154
89	0x3d23106c	0.039810583
90	0xbc8a65be	-0.016894218
91	0x3c9c5f7e	0.019088503
92	0x3cabea96	0.020985883
93	0xbd404a6c	-0.046945974
94	0x3ce64f3e	0.028113957
95	0xbd415a22	-0.047205098
96	0x3d12ad2f	0.035809692
97	0x3d91cb98	0.071189106
98	0xbc65b035	-0.014019062
99	0x3c578c9d	0.013156083
100	0x3d2e06c1	0.04248691
101	0x3d0f802a	0.035034336
102	0x3d158289	0.03650144
103	0xbcfa7ad4	-0.030576147
104	0x3b341ed6	0.00274842
105	0xbd171b2a	-0.03689114
106	0x3c63a263	0.0138936965
107	0xbd757547	-0.059926298
108	0x3cc500ec	0.024048291
109	0x3cdc3997	0.02688293
110	0xbd4ba8b6	-0.049721442
111	0x3c85c66b	0.016329965
112	0xbc96e44a	-0.018419404
113	0x3d6a1ab7	0.057154384
114	0x3cdde288	0.027085558
115	0x3d39c389	0.045352492
116	0xbd02afd5	-0.031905968
117	0x3bae5c0b	0.005321031
118	0x3d3f1777	0.046653237
119	0x3be7ac40	0.0070700943
120	0xbc9d2533	-0.019182777
121	0xbcab255b	-0.020891836
122	0x3d32b934	0.043633655
123	0x3ce08b20	0.02741009
124	0x3c7164a4	0.014733467
125	0x3d2dab91	0.042399947
126	0xbb70327b	-0.0036651182
127	0xbcb4e7b7	-0.022083146
128	0x3c012da6	0.007884419
129	0x3d6323c6	0.055454038
130	0xbd4c8955	-0.049935658
131	0xbcbe4e2f	-0.02323064
132	0x3d518aad	0.051157642
133	0x3d0240f3	0.03180022
134	0x3d0448fb	0.032296162
135	0x3cbe24f3	0.023210978
136	0xbd33071b	-0.04370795
137	0xbc5da2e7	-0.0135276085
138	0x3d1815ec	0.03713028
139	0x3cfe9b18	0.031079814
140	0x3d56982c	0.052391216
141	0x3d190af4	0.03736396
142	0x3cc06a9c	0.023488335
143	0xbcbf9d2b	-0.023390373
144	0xbc99c966	-0.018772792
145	0xbc492674	-0.012277234
146	0xbb194845	-0.0023389023
147	0xbc33b730	-0.010968968
148	0xbc9804d0	-0.018556982
149	0xbb43f4df	-0.0029900593
150	0x3d170e88	0.036879092
151	0xbd2a8f98	-0.041640848
152	0x3cc589cd	0.02411356
153	0xbd67bf34	-0.05657883
154	0xbaf0e5eb	-0.0018379068
155	0xbd75f8dd	-0.060051788
156	0x3d4e5dab	0.050382297
157	0xbd604685	-0.054754753
158	0xbd1a2def	-0.037641462
159	0x3d215895	0.03939112
160	0x3cf35fee	0.029708829
161	0x3d459ecd	0.048247147
162	0x3c240864	0.010011766
163	0xbd3f25cb	-0.0466669
164	0xbd235f48	-0.03988579
165	0x3d097097	0.03355464
166	0xbd8c0291	-0.06836427
167	0x3d029e3b	0.03188918
168	0xbcaafc2b	-0.020872196
169	0xbb4c1865	-0.003114247
170	0xbc897233	-0.016778087
171	0xbc4b4c11	-0.012408272
172	0xbc919d0b	-0.01777508
173	0x3c2ea301	0.01065898
174	0xbb38d613	-0.002820377
175	0x3c5fd638	0.013661914
176	0x3d3f5076	0.046707593
177	0x3c25e30f	0.010124936
178	0xbd1f7fe4	-0.038940325
179	0xbd04befc	-0.0324087
180	0x3c4087a4	0.011751089
181	0x3ccf1701	0.025279524
182	0x3c83833e	0.016053792
183	0xbca66d0c	-0.02031567
184	0xbd2e186a	-0.04250375
185	0x3ce0e872	0.027454589
186	0xbccfcf78	-0.025367483
187	0xbce87625	-0.028376648
188	0x3a575135	0.00082137
189	0x3d280c87	0.041027572
190	0xbc9e2e6c	-0.019309245
191	0xbd2cce44	-0.042188898
192	0x3bb7014a	0.0055848705
193	0xba96b4c7	-0.0011497968
194	0xbc07bef8	-0.008285277
195	0xbd6c3fa3	-0.057677876
196	0x3d0419f7	0.032251325
197	0x3b64d6db	0.0034918103
198	0xbca4f837	-0.02013789
199	0xbb86b599	-0.0041110036
200	0x3c2b4914	0.010454435
201	0xbd1be82b	-0.03806321
202	0xbc2b3a97	-0.010450981
203	0xbd1e6b87	-0.038676765
204	0xbce037f3	-0.027370429
205	0xbd8cafde	-0.068694815
206	0xbd499ae6	-0.04921999
207	0xbd526e0c	-0.05137448
208	0x3ca4b81e	0.020107325
209	0x3b94023c	0.004516868
210	0xbcf86351	-0.030320795
211	0xbc36552c	-0.011128705
212	0x3ca90ad2	0.020635042
213	0x3c35800c	0.011077892
214	0x3bd7edb7	0.006589617
215	0x3a87496b	0.0010321563
216	0x3d24e818	0.040260404
217	0xbd1499b0	-0.03627938
218	0x3d3cf9ae	0.04613655
219	0xbc38c69f	-0.011277824
220	0xbb5c2d6d	-0.0033596412
221	0xbb0f3192	-0.0021849615
222	0xbd092cdb	-0.033490043
223	0xbc9106d0	-0.017703444
224	0xbd293e36	-0.041319095
225	0xbc931e1f	-0.017958699
226	0xbc44a3f6	-0.012001982
227	0xbd8cab23	-0.06868579
228	0x3c281256	0.010258278
229	0xbdb018c7	-0.08598476
230	0x3b00a0cf	0.00196271
231	0xbd6e303f	-0.05815148
232	0xbc6de980	-0.014521003
233	0x3cb39d90	0.021925718
234	0xbd8693ab	-0.06571134
235	0xbd8ae497	-0.06781881
236	0xbd52039a	-0.051272966
237	0xbd2a613d	-0.04159664
238	0xbd810de1	-0.06301475
239	0x3c2ec1a4	0.010666285
240	0xbccdd167	-0.025124265
241	0x3c914891	0.017734798
242	0xbd58ab33	-0.052897643
243	0xbc93ec40	-0.018056989
244	0xbd5d7fe3	-0.05407704
245	0xbd5114e2	-0.051045306
246	0xbd17a15e	-0.037019126
247	0xbb9799da	-0.004626495
248	0x3c9a90f3	0.018867945
249	0x3ca06084	0.019577272
250	0x3cc07dcf	0.02349749
251	0x3d24d799	0.040244672
252	0xbc0bf8d0	-0.008543208
253	0x3d28d544	0.04121901
254	0xbd5bb82f	-0.053642448
255	0xbcadd2cf	-0.021218685

conv_encode_2.0.bias f4 [16]
0	0x3dc65003	0.0968323
1	0x3ddba556	0.10724895
2	0xbc5b2046	-0.013374394
3	0xbdfc0036	-0.12304728
4	0x3d882fe6	0.06649761
5	0xbcd22289	-0.025651233
6	0x3d39ad41	0.045331243
7	0xbd4f6d21	-0.050641183
8	0x3a775fb7	0.0009436565
9	0x3b49631a	0.0030729235
10	0xbc4e0ea9	-0.012576737
11	0xbdb8f7bc	-0.090316266
12	0x3d3fc656	0.046820007
13	0x3ce3f394	0.027826108
14	0xbc765486	-0.0150348
15	0xbda808a6	-0.082047746

conv_encode_2.2.weight f4 [16]
0	0x3f77d220	0.96805
1	0x3f7b8da5	0.9826301
2	0x3f71c480	0.9444046
3	0x3f802154	1.0010171
4	0x3f764b33	0.96208495
5	0x3f7aa57b	0.97908753
6	0x3f7a0606	0.9766544
7	0x3f73f222	0.9529134
8	0x3f78e55c	0.97224975
9	0x3f7da1ff	0.9907531
10	0x3f7f1d95	0.99654514
11	0x3f7f597e	0.9974593
12	0x3f6fee90	0.9372339
13	0x3f7b8dbe	0.98263156
14	0x3f7d8081	0.99024206
15	0x3f7c9bbf	0.9867515

conv_encode_2.2.bias f4 [16]
0	0x3da8d539	0.08243794
1	0x3d97497f	0.07387065
2	0x3dde8617	0.10865419
3	0xbe0b05bc	-0.13576406
4	0x3d9b8742	0.07594158
5	0x3dfcf137	0.123506956
6	0x3c56a7be	0.013101516
7	0x3d5cdd72	0.053922124
8	0xbb4611ee	-0.003022309
9	0x3d5f9e43	0.05459429
10	0xbc20ada1	-0.009807021
11	0xbe3a8329	-0.18214096
12	0x3ddca683	0.10773947
13	0x3c9a40e9	0.01882978
14	0xbcf30eaa	-0.029670078
15	0xbcf212cc	-0.029549979

conv_encode_2.2.running_mean f4 [16]
0	0x3e77abe4	0.24186665
1	0x3e8927e3	0.26788244
2	0x3e4c971d	0.1997952
3	0x3d7f50f1	0.06233305
4	0x3e803c77	0.2504613
5	0x3e76a993	0.24088125
6	0x3ec39e60	0.38206768
7	0x3e2aa89d	0.16665883
8	0x3e084a25	0.13309534
9	0x3ed5ffda	0.41796762
10	0x3e5178a2	0.20456174
11	0x3bbd40f4	0.0057755653
12	0x3dded543	0.1088052
13	0x3e5a03b9	0.21290483
14	0x3ede7845	0.43451133
15	0x3e0488f9	0.12942876

conv_encode_2.2.running_var f4 [16]
0	0x3d8001c6	0.06250338
1	0x3d959d36	0.07305376
2	0x3e064791	0.13113238
3	0x3c6acca1	0.014331014
4	0x3d7a9b6a	0.06118337
5	0x3db2ff0e	0.08740054
6	0x3e7e575f	0.24838017
7	0x3da4b798	0.0804283
8	0x3dc45328	0.09586173
9	0x3ec0b66a	0.3763917
10	0x3d9a5498	0.07535666
11	0x3b175ae0	0.0023094937
12	0x3d2a9982	0.041650303
13	0x3d4e050f	0.050297793
14	0x3e9c6538	0.30545974
15	0x3d9d8ab1	0.07692469

se_2.fc.0.weight f4 [2, 16]
0	0x3de3901a	0.111114696
1	0x3dbd2370	0.09235275
2	0x3dbe19a0	0.09282231
3	0xbe2096b6	-0.15682492
4	0xbce478dc	-0.027889661
5	0xbc6f6e97	-0.014613769
6	0xbd6c7314	-0.057726935
7	0x3dcb393e	0.099230275
8	0xbdd8f53b	-0.10593649
9	0xbd455944	-0.048180833
10	0xbd5b5341	-0.053546194
11	0x3e229056	0.15875372
12	0xbddd9409	-0.10819251
13	0xbb01cd5a	-0.0019806237
14	0x3e17f975	0.14841254
15	0xbcdb0a42	-0.02673829
16	0xbe000c0c	-0.12504596
17	0xbd67d99b	-0.05660401
18	0x3d88a584	0.066721946
19	0xbdff03f6	-0.12451927
20	0x3e3a3de7	0.18187676
21	0xbcf98c2d	-0.030462349
22	0x3d8d5fd6	0.06903045
23	0x3e088e45	0.13335522
24	0xbe472463	-0.19447474
25	0x3e175885	0.14779861
26	0xbddc5cd0	-0.1075989
27	0x3e3531d2	0.17694786
28	0x3b19fd5f	0.0023496968
29	0xbdb8e8a7	-0.0902875
30	0xbe376f9f	-0.17913674
31	0x3d969821	0.07353235

se_2.fc.2.weight f4 [16, 2]
0	0x3e98ca6f	0.29841945
1	0x3eab5c7a	0.33468992
2	0x3ed0196d	0.40644398
3	0x3ef7e739	0.48418596
4	0xbf2dd68f	-0.67905515
5	0x3f1def81	0.6169358
6	0x3e3000cc	0.17187804
7	0xbef1cd08	-0.4722674
8	0xbf24844b	-0.64264363
9	0x3f23e14a	0.6401564
10	0xbeab448e	-0.3345074
11	0x3db5f927	0.08885413
12	0xbec04248	-0.3755057
13	0xbf300984	-0.6876452
14	0x3ec2cc59	0.3804653
15	0xbf12e30a	-0.57377684
16	0x3da5efe6	0.081023976
17	0x3f1865ac	0.5953014
18	0x3f0d078f	0.5508966
19	0x3e14171f	0.14461945
20	0xbe9fcb1a	-0.31209642
21	0xbf190782	-0.5977708
22	0xbead0896	-0.33795613
23	0xbe996f6d	-0.29967824
24	0x3f0dd9eb	0.5541064
25	0xbeadcd12	-0.3394552
26	0xbf2c0299	-0.67191464
27	0xbd3430d8	-0.043991894
28	0xbf0df46b	-0.5545108
29	0xbd90e33c	-0.070745915
30	0xbec52d46	-0.38511103
31	0x3f011120	0.50416756

conv_encode_3.0.weight f4 [16, 48, 3, 3]
0	0xbc70c014	-0.0146942325
1	0xbc1b1f72	-0.009467946
2	0x3d23921a	0.039934255
3	0x3d155b9a	0.03646431
4	0xbbb8257f	-0.0056197043
5	0xbd1f844e	-0.038944535
6	0x3c5fd0dc	0.013660636
7	0x3d08d626	0.033407353
8	0x3d04ac54	0.032390907
9	0x3b7c5cec	0.0038507534
10	0xbd22c5b1	-0.039739314
11	0xbca94ee9	-0.02066751
12	0xbc606abb	-0.0136973215
13	0x3cd17fcc	0.025573634
14	0xbb9253f6	-0.0044655753
15	0xbcb4a41d	-0.022050912
16	0x39a1e1a7	0.00030876437
17	0xbd1f9270	-0.038958013
18	0xbc763c1d	-0.015028981
19	0x3c4177ef	0.01180838
20	0x3d1fe1af	0.039033588
21	0x3c01e540	0.007928193
22	0xbbc0a724	-0.0058792997
23	0x3d0522d8	0.032503933
24	0xbd0484cb	-0.032353204
25	0xbc3da2c7	-0.011574454
26	0x3bf7e3fc	0.0075650197
27	0x3cc5defa	0.024154175
28	0xbc763f3d	-0.015029726
29	0xbcc4b9f4	-0.02401445
30	0xbd02ef1b	-0.03196631
31	0xbd04c749	-0.032416616
32	0x3cf89724	0.030345507
33	0xbd038442	-0.032108553
34	0x3a8f3e85	0.0010928666
35	0x3c860898	0.01636152
36	0x3c989397	0.018625064
37	0xbd2cb198	-0.042161554
38	0x3ca3f9a7	0.020016504
39	0xbc94be47	-0.018157138
40	0xbc891580	-0.016733885
41	0xbc5a79bd	-0.013334689
42	0xbd42920e	-0.04750257
43	0xbc162284	-0.009163503
44	0x3c29937d	0.010350105
45	0xbd3bc682	-0.04584361
46	0xbcaa9254	-0.020821728
47	0xbd033480	-0.03203249
48	0xbd010865	-0.031502146
49	0xbccee662	-0.02525634
50	0x3d1ddeea	0.038542666
51	0x3c7a1ded	0.015265924
52	0x3cce32e8	0.025170758
53	0xbd114dd7	-0.035474624
54	0xbcb62773	-0.022235608
55	0xbd2e4dd5	-0.042554695
56	0x3cad71e4	0.021172471
57	0xbd409efa	-0.047026612
58	0xbd3da15a	-0.046296455
59	0xbc0980f1	-0.008392558
60	0x3bfddb93	0.0077471226
61	0x3c603ef4	0.013686884
62	0xbc511aa1	-0.0127626965
63	0x3c07dfad	0.008293075
64	0x3c4274a1	0.011868627
65	0x3c61e165	0.013786648
66	0xbc425b63	-0.011862609
67	0x3d1374c8	0.036000043
68	0x3bb8a59e	0.0056349775
69	0x3ced1374	0.02893994
70	0x3c9e1c82	0.019300703
71	0xbcae0eba	-0.021247257
72	0xbc6c975e	-0.014440386
73	0xbca07e4f	-0.019591479
74	0xbb5689ab	-0.0032735865
75	0x3c8f731b	0.017510941
76	0x3bf51102	0.007478834
77	0x3d3248b2	0.04352636
78	0x3d2ac158	0.041688293
79	0x3c8a47d9	0.016879963
80	0x3b08f6ea	0.0020899125
81	0xbcbbf764	-0.022945113
82	0x3d12ea40	0.03586793
83	0xbc79361c	-0.015210655
84	0xbd2250e8	-0.03962794
85	0x3cc0d1a2	0.02353746
86	0x3cf90f88	0.030402914
87	0x3cc12fec	0.023582421
88	0x3b7e972f	0.0038847437
89	0xbca2533e	-0.019815084
90	0x3ce206d0	0.02759114
91	0x3d36f7c0	0.044669867
92	0x3cb11563	0.021616643
93	0x3ccafcec	0.024778806
94	0xbcc1dab6	-0.02366386
95	0x3c9240af	0.01785311
96	0xbca21480	-0.019785166
97	0xbc518d00	-0.012789965
98	0x3cac7b76	0.021054965
99	0x3c7184ef	0.0147411665
100	0x3cd02810	0.025409728
101	0xbc331f1c	-0.01093271
102	0xbcaa5981	-0.020794632
103	0x3c60fb56	0.013731798
104	0x3cabf207	0.020989431
105	0xbbd90f85	-0.0066241645
106	0xbcf025e8	-0.02931495
107	0x3d0ad816	0.03389748
108	0x3c8e1ff9	0.01734923
109	0x3c563ce8	0.013076045
110	0xbc88e3e9	-0.016710239
111	0x3d156f91	0.03648335
112	0xbb10937d	-0.0022060566
113	0xbbddc6ec	-0.006768098
114	0x3c5cc880	0.013475537
115	0xbbe53282	-0.0069945464
116	0x3b8a0ce9	0.004212965
117	0x3b89d1b5	0.004205907
118	0x3c99d0ee	0.018776383
119	0x3bdbf05d	0.006712003
120	0xbcb38421	-0.02191359
121	0xbbff5bed	-0.007792941
122	0x3d45647b	0.04819153
123	0x3d15d6cd	0.036581803
124	0x3b378cc8	0.0028007496
125	0x3c1f7631	0.009732769
126	0xbd02a10f	-0.03189188
127	0x3d088ee1	0.033339385
128	0xbd3df1a4	-0.046373025
129	0x3c8d3973	0.017239308
130	0x3ce5844a	0.028017182
131	0x3bf625d5	0.007511834
132	0x3c7dd75f	0.015493243
133	0xbd5454a1	-0.05183852
134	0xbc9bcb96	-0.019017976
135	0xbc7222d9	-0.014778816
136	0x3cd73208	0.026268974
137	0xbd1410ba	-0.036148764
138	0xbce068a9	-0.027393656
139	0x3cb367e3	0.021900123
140	0x3c82b9ac	0.015957676
141	0xbd252edc	-0.04032789
142	0x3d1df623	0.038564812
143	0x3d0f54e7	0.03499308
144	0x3c6ff128	0.0146448985
145	0x3bb95b85	0.005656662
146	0xbd11cc03	-0.03559495
147	0xbd36dc25	-0.04464354
148	0xbd00b797	-0.031425085
149	0xbd1b19bb	-0.037866335
150	0xbcf56cc0	-0.029959083
151	0xbc9bd2d8	-0.019021437
152	0x3d21e662	0.03952635
153	0xbd3e3cb2	-0.046444602
154	0x3d322388	0.043490916
155	0x3d38f94b	0.04515962
156	0x3c25a227	0.010109461
157	0x3bfc779d	0.0077046887
158	0x3cad0af5	0.021123389
159	0x3c35c231	0.011093662
160	0xbd00af07	-0.03141692
161	0xbd027cea	-0.03185741
162	0x3d0eee5c	0.034895286
163	0xbcae005b	-0.021240404
164	0x3ca384a7	0.019960715
165	0x3bad749f	0.0052934433
166	0xbcf39b3b	-0.029737106
167	0xbc25ef2b	-0.010127823
168	0xbc93c77b	-0.018039456
169	0x3d29128f	0.041277464
170	0x3bf1efc7	0.00738332
171	0x3bc39b9a	0.005969477
172	0xbd0e7543	-0.0347798
173	0xbce80118	-0.028320834
174	0xbd3d7d51	-0.04626209
175	0x3c61a277	0.013771645
176	0xbd30ee4e	-0.043196015
177	0x3c43512c	0.011921208
178	0x3c821f93	0.015884196
179	0x3a5967ab	0.0008293341
180	0xbd1012b6	-0.035174094
181	0x3cda27f2	0.026630376
182	0xbc91a5ef	-0.017779319
183	0x3d12c4dc	0.03583227
184	0x3b94412e	0.0045243716
185	0xbca44bcf	-0.02005568
186	0xba2e16cc	-0.000664097
187	0xbd3375a2	-0.043813355
188	0x3cabb13c	0.020958535
189	0xbd10047d	-0.03516053
190	0x3cc5faef	0.024167506
191	0x3c0805dc	0.008302178
192	0xbd5f64cc	-0.054539487
193	0xb95bc2b7	-0.00020958004
194	0xbca3a2c4	-0.019975074
195	0x3bda0061	0.006652877
196	0xba09bb83	-0.00052540767
197	0xbca22aa9	-0.019795733
198	0x3bc50076	0.006012018
199	0xbcbf9a37	-0.023388965
200	0xbb29074c	-0.0025791703
201	0xbb1cd6e3	-0.0023931793
202	0x3c8306d9	0.015994476
203	0x3ba885e8	0.005142916
204	0xbd571754	-0.05251248
205	0x3c18d796	0.009328743
206	0xbc159a9a	-0.009131098
207	0xbcdae5b8	-0.026720867
208	0x3c7cc745	0.015428369
209	0x3c32c2e4	0.010910723
210	0x3ccd6706	0.02507354
211	0x3bbff1f0	0.0058576986
212	0xbc469e5c	-0.012122717
213	0x3bbc694f	0.0057498585
214	0x3c1732ce	0.009228421
215	0xbc9bd054	-0.019020237
216	0x3d28d639	0.041219924
217	0xbd2ac662	-0.0416931
218	0x3d0329a7	0.032022145
219	0x3c8813f2	0.016611073
220	0x3cea8c27	0.028631283
221	0x3adbc22f	0.0016766245
222	0xbcdba39f	-0.026811419
223	0x3c2c4b41	0.010515989
224	0xbd110e5b	-0.03541408
225	0xbc24ee55	-0.010066588
226	0xbc5c6201	-0.0134511
227	0xbd09a3fc	-0.033603653
228	0x3d1a1cbb	0.037625056
229	0xbd162cce	-0.036663823
230	0x3d06b25e	0.032884948
231	0xbc4c6661	-0.012475581
232	0xbcb04b84	-0.021520384
233	0x3cb46c2a	0.022024233
234	0xbcb8d5a5	-0.022562811
235	0x3d1f3f57	0.038878765
236	0x3ce69370	0.028146476
237	0x3d179e6c	0.037016317
238	0x3ba1ba26	0.0049355207
239	0xbd3a6d1f	-0.045514222
240	0x3c4f4059	0.012649619
241	0x39d91095	0.0004140182
242	0x3cdb7984	0.026791342
243	0x3a3270e5	0.0006806984
244	0xbd2ada65	-0.041712184
245	0x3cc5c3c4	0.0241412
246	0xbd2e3854	-0.042534187
247	0xbd4229b9	-0.04740307
248	0xbc592c71	-0.013255225
249	0x3d2c233f	0.0420258
250	0xbcf8840f	-0.030336408
251	0x3adb7b57	0.0016745132
252	0xbceac228	-0.028657034
253	0x3cfdb3ed	0.030969584
254	0xbc6ea375	-0.014565338
255	0xbd269f64	-0.04067935

conv_encode_3.0.bias f4 [16]
0	0xbe2854a8	-0.16438544
1	0xbc45c5b4	-0.012071062
2	0xbc8ad2a5	-0.016946146
3	0x3c38a385	0.011269455
4	0xbd29a766	-0.04141941
5	0xbd9aee1a	-0.075649455
6	0x3d078862	0.03308905
7	0x3c0cfb02	0.008604767
8	0x3d1968f2	0.0374536
9	0x3c0e3ec1	0.008681954
10	0xbe026c89	-0.12736715
11	0xbbe73543	-0.00705591
12	0x3a0be59c	0.00053366437
13	0xbad34a18	-0.0016120104
14	0xbcb48431	-0.02203569
15	0xbc74fed6	-0.014953336

conv_encode_3.2.weight f4 [16]
0	0x3f852a15	1.0403467
1	0x3f806d47	1.0033349
2	0x3f7a684f	0.9781541
3	0x3f809d9a	1.0048096
4	0x3f7ddd5b	0.99165887
5	0x3f8386db	1.027553
6	0x3f80f656	1.0075176
7	0x3f7dce4e	0.9914292
8	0x3f806abf	1.0032576
9	0x3f7f75c8	0.99789095
10	0x3f844a27	1.033513
11	0x3f7da4c1	0.9907952
12	0x3f7fe0e1	0.9995251
13	0x3f7e4590	0.99324894
14	0x3f7967be	0.97423923
15	0x3f794b43	0.97380465

conv_encode_3.2.bias f4 [16]
0	0xbdde019c	-0.10840151
1	0x3ce1ccc2	0.027563456
2	0xbe454ae9	-0.19266857
3	0xbd847e7b	-0.06469437
4	0xbd904555	-0.07044474
5	0xbd7585de	-0.05994212
6	0xbcaf6d34	-0.021414377
7	0x3cd79a4d	0.026318694
8	0xbd3f9231	-0.04677028
9	0xbd805755	-0.06266657
10	0xbd747e61	-0.059690837
11	0xbdb3e736	-0.08784334
12	0xbbe8bac6	-0.0071023433
13	0xbd6e83b0	-0.058231056
14	0xbbbd0949	-0.005768929
15	0xbc7a56c6	-0.015279477

conv_encode_3.2.running_mean f4 [16]
0	0x3b6d09e3	0.0036169223
1	0x3e5466f8	0.20742404
2	0x3deedc12	0.11663069
3	0x3e243e91	0.16039492
4	0x3e17e99f	0.14835213
5	0x3e244a48	0.16043961
6	0x3ebb45b6	0.36576623
7	0x3e5ec72f	0.2175567
8	0x3f063b6a	0.5243441
9	0x3f1e6005	0.61865264
10	0x3dc8a39d	0.09796832
11	0x3ea82570	0.32841063
12	0x3e858392	0.26076943
13	0x3eb7e8dc	0.35919845
14	0x3e95fa4f	0.29292533
15	0x3ed91d74	0.42405283

conv_encode_3.2.running_var f4 [16]
0	0x3b139307	0.0022518055
1	0x3d10ea0b	0.03537945
2	0x3dbf36b1	0.093366034
3	0x3e16f828	0.14743102
4	0x3d72350f	0.059132632
5	0x3d908e52	0.070583954
6	0x3ea9864b	0.3311027
7	0x3d9bf9ad	0.07615981
8	0x3eaab656	0.33342236
9	0x3ef10117	0.47071144
10	0x3ce55d5f	0.027998624
11	0x3ead0977	0.33796284
12	0x3e4e289e	0.20132682
13	0x3e900007	0.2812502
14	0x3db1a072	0.08673181
15	0x3e75cfdb	0.24005072

se_3.fc.0.weight f4 [2, 16]
0	0x3d92b1fe	0.071628556
1	0x3e592739	0.21206369
2	0x3ddb1e21	0.10699106
3	0xbe807b13	-0.25093898
4	0xbcc4f575	-0.024042824
5	0x3db14e55	0.08657519
6	0xbd80c794	-0.062880665
7	0xbcfc279e	-0.03078061
8	0xbcd78759	-0.026309656
9	0x3e36c820	0.17849779
10	0xbd90b6cf	-0.07066118
11	0x3c9f8dbc	0.019476764
12	0x3dfa1cca	0.12212522
13	0x3e10f126	0.14154491
14	0x3e137ade	0.14402339
15	0x3e215db0	0.15758395
16	0x3dfec23f	0.12439393
17	0x3daf1173	0.0854825
18	0x3d2191f9	0.03944585
19	0x3d9f1b04	0.07768825
20	0xbdaaf8b4	-0.083482176
21	0x3d78e0ec	0.060761377
22	0xbdec5595	-0.11539761
23	0x3e28c555	0.16481526
24	0x3e80ef98	0.25182796
25	0xbd642f1a	-0.055708982
26	0x3e0e1740	0.13876057
27	0xbe173b36	-0.14768681
28	0xbe00b2ae	-0.12568161
29	0xbdf3a6b5	-0.11897031
30	0x3e030890	0.12796235
31	0x3d9a0a76	0.075215265

se_3.fc.2.weight f4 [16, 2]
0	0xbecc6069	-0.39917305
1	0xbe1d5816	-0.15365633
2	0x3efe3102	0.49646765
3	0x3d0a137a	0.03370998
4	0xbd24e00f	-0.04025274
5	0x3e3eaa23	0.1861959
6	0x3f113fb4	0.5673783
7	0xbf0b9825	-0.5452903
8	0xbe2492e9	-0.16071667
9	0xbef3c8f7	-0.47614262
10	0x3e991b54	0.29903662
11	0xbe66b609	-0.22530378
12	0x3da712b7	0.081578664
13	0xbe61402f	-0.2199714
14	0x3e73c97b	0.23807327
15	0xbe81b582	-0.25333792
16	0xbdf41aa2	-0.11919142
17	0x3bba051f	0.00567688
18	0xbed2411d	-0.41065302
19	0x3edd633a	0.43239766
20	0xbeb1b943	-0.34711656
21	0xbe8184da	-0.2529667
22	0xbe996fa5	-0.2996799
23	0x3ee93c4e	0.4555382
24	0x3ed5b546	0.41739863
25	0x3ef4d1b1	0.47816232
26	0x3d358ec2	0.044325598
27	0xbecf53a2	-0.40493494
28	0x3eb36f1b	0.35045704
29	0xbeb75ccf	-0.35812995
30	0x3f1f0a0e	0.6212472
31	0x3cc73a7a	0.024319876

conv_decode_1.0.weight f4 [64, 64, 3, 3]
0	0xbd0d3ab1	-0.0344798
1	0xbd048566	-0.03235378
2	0x3c7b4902	0.015337231
3	0x3cc6e0da	0.02427714
4	0xbd9dfe96	-0.07714574
5	0x3d5fc4b2	0.054630943
6	0x3bcf4552	0.0063254023
7	0x3d0094be	0.03139185
8	0xbc2798bd	-0.010229287
9	0x3c82398b	0.01589658
10	0x3a2d3040	0.0006606616
11	0xbb6de52d	-0.003629993
12	0xbc2dce0e	-0.010608209
13	0xbc345986	-0.011007672
14	0x3c7f7c22	0.01559356
15	0x3ca955c9	0.020670788
16	0xbc71fa7b	-0.014769192
17	0xbc96b942	-0.018398885
18	0x3d88f1d9	0.06686754
19	0xbd6f5929	-0.05843464
20	0xbc9a2c8a	-0.018820066
21	0xbd2b02ce	-0.04175072
22	0x3d9e4edf	0.07729887
23	0xbbc306ea	-0.005951752
24	0x3b572e0f	0.003283385
25	0x3c52a8a8	0.012857594
26	0x3d96738f	0.0734626
27	0x3c2a105f	0.01037988
28	0xbcf17db8	-0.029478893
29	0x3b2059b5	0.0024467532
30	0xbc0086d3	-0.007844645
31	0xbc897cfd	-0.016783232
32	0x3d5fadb1	0.054609004
33	0x3b8df25d	0.0043318705
34	0xbc23cdce	-0.009997798
35	0xb95fa192	-0.00021327127
36	0xbcf99676	-0.030467253
37	0xbca5838d	-0.02020433
38	0x3d167354	0.03673108
39	0xbd383ffa	-0.044982888
40	0xbc600e56	-0.013675293
41	0x3b6b9842	0.0035948907
42	0xbd30395d	-0.043023456
43	0xbd640bd5	-0.055675346
44	0x3cbafbc7	0.022825135
45	0xbd1ac593	-0.037786078
46	0x3d68dfd8	0.0568541
47	0x3d1a204a	0.03762845
48	0xbbd17f1b	-0.006393326
49	0xbc2daf9e	-0.010600952
50	0x3c28e246	0.010307854
51	0xbb3b44c1	-0.0028574916
52	0x3d30288d	0.043007422
53	0x3cfec2af	0.031098692
54	0x3c89e79d	0.016834075
55	0xbd2aef79	-0.041732285
56	0xbc0f907b	-0.008762474
57	0x3c5f1f21	0.013618262
58	0xbd123daf	-0.035703357
59	0xbd297de3	-0.04137982
60	0xbd646e08	-0.055768996
61	0xbd75a82a	-0.059974827
62	0xbd050752	-0.032477684
63	0xb8c049d4	-9.169025e-05
64	0x3ca28fd7	0.019843979
65	0x3cc2a37e	0.0237596
66	0x3c980a71	0.018559666
67	0x3d823236	0.06357233
68	0x3d16b1cf	0.036790665
69	0x3cc9bcc1	0.024626138
70	0x3d28ce89	0.041212592
71	0xbcff1ed4	-0.03114263
72	0x3cd8e2cb	0.02647533
73	0x3a9a13d6	0.0011755179
74	0xbd294da0	-0.041333795
75	0x3ba60812	0.00506688
76	0xbc300cd2	-0.010745244
77	0xbc6e5110	-0.014545694
78	0x3bd0b921	0.0063697253
79	0xbc4c59ce	-0.012472583
80	0x3c07d3ec	0.008290272
81	0xbcbae52a	-0.022814352
82	0x3c88c5c2	0.01669586
83	0x3cea40b6	0.02859531
84	0xbd0c2b65	-0.03422107
85	0xbd6fcca8	-0.058544785
86	0x3d0513f7	0.032489743
87	0x3b0f7a67	0.0021893026
88	0x3ce4536b	0.027871808
89	0xbd068dbe	-0.03285002
90	0x3aa91070	0.0012898576
91	0x3ccae7cd	0.024768734
92	0x3c733395	0.014843841
93	0xbc5c4032	-0.01344304
94	0xbc6e2107	-0.0145342415
95	0xbcc4c914	-0.024021663
96	0xbb9906d5	-0.004670004
97	0x3d07ed88	0.03318551
98	0x3d04520b	0.032304805
99	0x3ad7a014	0.0016450905
100	0x3b63dc76	0.0034768856
101	0xbb378b35	-0.0028006558
102	0xbd00521a	-0.0313283
103	0xbdcd0634	-0.10010949
104	0x3b0da500	0.002161324
105	0xbd7497f9	-0.059715245
106	0xbda18314	-0.07886329
107	0xbd097604	-0.033559814
108	0xbd41f017	-0.04734811
109	0xbd07a854	-0.033119515
110	0x3b039ea9	0.0020083582
111	0xba2231a6	-0.0006187208
112	0xbd889f19	-0.066709705
113	0xbd296585	-0.041356582
114	0xbd7335c3	-0.059377443
115	0xbc42524c	-0.011860441
116	0xbd117d12	-0.035519667
117	0x3ad3a145	0.0016146085
118	0xbcaa9115	-0.020821134
119	0xbccc038b	-0.024904033
120	0x3bacb962	0.005271123
121	0x3c56644a	0.013085434
122	0x3ccd28c0	0.025043845
123	0xbd5a1473	-0.05324216
124	0x3c815728	0.01578863
125	0xbd0c7b50	-0.034297287
126	0xbcb9a35a	-0.0226609
127	0xbd021ff3	-0.03176875
128	0xbcb46efd	-0.02202558
129	0xbcb982ef	-0.022645442
130	0xbd1dc48b	-0.038517516
131	0xbb86ecaf	-0.0041175704
132	0xbd2938db	-0.041313987
133	0x3c9b9394	0.01899127
134	0x3cc7eda2	0.024405304
135	0x3d15d6e6	0.036581896
136	0xbc841116	-0.016121428
137	0xbcd18b04	-0.025578983
138	0x3c913305	0.017724523
139	0xbcd2be2f	-0.025725452
140	0xbcfe12e9	-0.031014876
141	0xbb9220c8	-0.0044594742
142	0x3d1955ef	0.03743547
143	0x3d1e7328	0.03868404
144	0xbcb1a8d8	-0.021686956
145	0xbd0eed54	-0.034894302
146	0xbc9120a1	-0.017715754
147	0xbc8d8203	-0.017273908
148	0x3cafd793	0.021465098
149	0xbc5553c5	-0.0130204605
150	0x3d125280	0.03572321
151	0xbb710e07	-0.0036782043
152	0x3c83b396	0.016076844
153	0x3b20d5dc	0.0024541533
154	0x3c9fe5e7	0.019518806
155	0xbcb8aec1	-0.022544267
156	0x3c9ed668	0.019389346
157	0xbd1fe9d8	-0.03904137
158	0x3ce4584b	0.027874133
159	0xbc0517c8	-0.008123346
160	0xbcf51112	-0.029915366
161	0x3cbc46d4	0.022982992
162	0xbc079f8c	-0.008277785
163	0x3d1d731e	0.038439862
164	0x3c04616b	0.008079867
165	0xbd17b16d	-0.03703444
166	0xbcdd994c	-0.027050637
167	0xbbe4f119	-0.006986749
168	0x3c9fd77b	0.019511929
169	0xbd2dc8a4	-0.042427674
170	0xbcd7a327	-0.026322914
171	0x3c12cb02	0.008959534
172	0x3a39731c	0.00070743426
173	0xbaa813c0	-0.0012823269
174	0xbbf3f1ae	-0.007444582
175	0xbc7fcb81	-0.015612484
176	0x3c7d370f	0.0154550215
177	0xbc539804	-0.012914661
178	0x3c5678a9	0.013090291
179	0xbbd24daa	-0.0064179497
180	0xbc2ed9b3	-0.010672021
181	0x3cde6731	0.027148815
182	0xbb4ec5da	-0.0031551034
183	0x3cca97f7	0.024730666
184	0xbcd20bf4	-0.025640465
185	0x3c848f25	0.016181538
186	0x3d1f0fb5	0.03883334
187	0xbc8b7b41	-0.017026545
188	0x3b8fd4c6	0.0043893782
189	0xbce487cb	-0.027896782
190	0x3d1909d6	0.037362896
191	0x3c391894	0.011297364
192	0xbccbece4	-0.024893232
193	0x3cadfd58	0.021238968
194	0xbbd952c5	-0.0066321814
195	0x3c24c6b6	0.010057142
196	0xbbd19ccb	-0.006396865
197	0x3c797643	0.01522595
198	0x3d1b32ee	0.037890367
199	0x3c4d2421	0.012520821
200	0xbd08362b	-0.033254784
201	0xbc6b597b	-0.0143645955
202	0x3d0dfeb7	0.034666743
203	0x3b5308ca	0.0032201284
204	0x3ca68466	0.020326804
205	0x3d034bd6	0.032054745
206	0x3c11e790	0.008905306
207	0x3c1d18d1	0.009588436
208	0xbc2a8092	-0.01040663
209	0x3c087d37	0.008330635
210	0x3c9e39fe	0.019314762
211	0x3cb0824b	0.021546504
212	0xbb22cff8	-0.0024843197
213	0x3c320cd0	0.010867313
214	0x3bbc05ed	0.005738011
215	0x3c7dbe6f	0.015487297
216	0xbc04c095	-0.008102556
217	0x3d5dded3	0.05416758
218	0xbc4bc604	-0.012437347
219	0x3c739cd3	0.014868933
220	0xbc656f3f	-0.014003574
221	0xbc989423	-0.018625325
222	0xbafc5a9c	-0.0019253078
223	0xbb5fb287	-0.003413351
224	0xbd02b8b8	-0.031914443
225	0x3c94bda3	0.018156832
226	0xbbb2cdc1	-0.0054566567
227	0x3d65f76e	0.05614417
228	0xbccc58b1	-0.024944635
229	0xbb729bc8	-0.0037019122
230	0x3cb1d10c	0.021706127
231	0xbd1e5b40	-0.03866124
232	0xbbf8e1d8	-0.007595282
233	0x3c9ee1d3	0.01939479
234	0x3bcb1c22	0.006198422
235	0xbc882aac	-0.01662191
236	0x3c07dc86	0.008292323
237	0x3cd2736d	0.025689805
238	0x3c9c001a	0.019043017
239	0xbd35af2a	-0.044356503
240	0xbcf18549	-0.0294825
241	0x3cfb360d	0.030665422
242	0xbce859cc	-0.028363131
243	0xbcea8713	-0.028628862
244	0x3c2e995c	0.010656681
245	0x3cccb638	0.024989232
246	0xbc2a103a	-0.010379845
247	0xbcb0617d	-0.021530861
248	0x3d009198	0.03138885
249	0x3ca0dded	0.019637072
250	0x3ce36b54	0.027761139
251	0xbb676612	-0.0035308641
252	0x3c74f8a6	0.0149518605
253	0xbc97e018	-0.018539473
254	0xbcbff585	-0.023432503
255	0x3ccdcd0d	0.02512219

conv_decode_1.0.bias f4 [64]
0	0xbd07a77b	-0.033118706
1	0x3c89baab	0.016812643
2	0x3dc28443	0.09497883
3	0xbd3678ca	-0.044548787
4	0x3d7320e1	0.059357528
5	0xbd335972	-0.043786474
6	0xb90de3e4	-0.00013531704
7	0xba86fb49	-0.0010298277
8	0x3b693c87	0.0035589056
9	0xbc61d0ee	-0.013782723
10	0xbb554aee	-0.0032545882
11	0x3c0a70e3	0.008449766
12	0x3b839091	0.0040150364
13	0x3d8cf616	0.06882875
14	0x3c0dccff	0.008654832
15	0x3c9a9c1e	0.01887327
16	0xbdd1c0cc	-0.10241851
17	0xbc6bf795	-0.01440229
18	0x3b1a4f58	0.0023545828
19	0xbddcd30e	-0.10782443
20	0x3d0fa32c	0.035067722
21	0xbc9cb554	-0.019129433
22	0xbc375727	-0.011190212
23	0x3c0b1868	0.008489706
24	0x3d60aa96	0.054850183
25	0x3d19c580	0.037541866
26	0x3d174d19	0.03693876
27	0x3b3338ff	0.0027347205
28	0x3d28e8cc	0.041237637
29	0x3d426245	0.047457
30	0xbc0dfe84	-0.008666638
31	0xbd09a5eb	-0.033605497
32	0xbc203e2e	-0.00978045
33	0x3d482d00	0.04887104
34	0x3bab56be	0.0052288463
35	0xbd1e47cb	-0.038642686
36	0xbc63667f	-0.013879417
37	0x3c321d42	0.010871233
38	0xba297ecf	-0.00064657343
39	0x3c4c6bdf	0.01247689
40	0xbd87b1fe	-0.06625746
41	0xbb11d03d	-0.0022249364
42	0xba614b95	-0.00085943314
43	0x3d03ceeb	0.032179754
44	0x3d002330	0.031283557
45	0x3c340fa8	0.010990061
46	0x3c0f7777	0.00875651
47	0x3c616d2e	0.013758941
48	0xbc88a53d	-0.016680354
49	0xbceb2d07	-0.028707994
50	0x3d324dde	0.04353129
51	0xbad098f0	-0.001591472
52	0xbc8088f8	-0.015690312
53	0x3cc42707	0.023944391
54	0xbcca5bc1	-0.024701955
55	0xbb0031e1	-0.001956098
56	0x3d32dea6	0.043669365
57	0x3d19a6a0	0.03751242
58	0xbcd89e54	-0.026442684
59	0xbc9852c2	-0.01859415
60	0xbc2c4bdf	-0.010516136
61	0xbda34d23	-0.07973697
62	0xbc10ba7f	-0.008833527
63	0xbda73a87	-0.0816546

conv_decode_1.2.weight f4 [64]
0	0x3f801827	1.0007371
1	0x3f7c339d	0.98516256
2	0x3f7465ba	0.9546772
3	0x3f7c53da	0.9856545
4	0x3f7b0f41	0.9807015
5	0x3f7e2449	0.99274117
6	0x3f80a5c2	1.0050585
7	0x3f74bd9a	0.9560181
8	0x3f7f2a2a	0.9967371
9	0x3f815d4f	1.01066
10	0x3f833f44	1.0253682
11	0x3f7ea236	0.99466264
12	0x3f726ba1	0.9469548
13	0x3f7a47e7	0.97765964
14	0x3f800a86	1.0003211
15	0x3f7a2e09	0.97726494
16	0x3f82250a	1.0167553
17	0x3f816260	1.0108147
18	0x3f81c6bb	1.0138773
19	0x3f820c5a	1.0160019
20	0x3f7cef10	0.9880228
21	0x3f7f1842	0.9964639
22	0x3f7d5ed7	0.9897284
23	0x3f7c77c7	0.98620266
24	0x3f7e9888	0.99451494
25	0x3f7ee9ea	0.99575675
26	0x3f795aab	0.97403973
27	0x3f7f0deb	0.9963061
28	0x3f7c12b8	0.9846606
29	0x3f7e8240	0.99417496
30	0x3f809908	1.0046701
31	0x3f820572	1.0157912
32	0x3f7cc478	0.9873729
33	0x3f80a836	1.0051334
34	0x3f801179	1.0005332
35	0x3f7a5801	0.97790533
36	0x3f810f01	1.0082704
37	0x3f80eaab	1.0071615
38	0x3f7df441	0.99200827
39	0x3f8129f5	1.0090929
40	0x3f80f8fa	1.0075982
41	0x3f7d12bc	0.9885671
42	0x3f8135ea	1.0094578
43	0x3f7cda53	0.98770636
44	0x3f80195b	1.0007738
45	0x3f7837b3	0.9695999
46	0x3f811600	1.0084839
47	0x3f810866	1.0080688
48	0x3f80745c	1.003551
49	0x3f7f6b7f	0.997734
50	0x3f80bb56	1.005717
51	0x3f811630	1.0084896
52	0x3f7d96fc	0.9905851
53	0x3f7e36b2	0.9930221
54	0x3f7e1338	0.99248075
55	0x3f7f3472	0.996894
56	0x3f810079	1.0078269
57	0x3f7c7114	0.98610044
58	0x3f7df99f	0.99209017
59	0x3f7b26ed	0.9810627
60	0x3f80272e	1.0011957
61	0x3f81cadd	1.0140034
62	0x3f807c57	1.0037946
63	0x3f817637	1.0114201
